…
dd(layers.Flatten())\r\n","# Fully connected layer\r\n","model.add(layers.Dense(128))\r\n","model.add(layers.Activation('relu'))\r\n","#add last layer for 3 classes\r\n","model.add(layers.Dense(3))\r\n","model.add(layers.Activation('softmax'))\r\n","model.summary()"],"execution_count":null,"outputs":[{"output_type":"stream","text":["Model: \"sequential\"\n","_________________________________________________________________\n","Layer (type)                 Output Shape              Param #   \n","=================================================================\n","conv2d (Conv2D)              (None, 64, 64, 64)        640       \n","_________________________________________________________________\n","activation (Activation)      (None, 64, 64, 64)        0         \n","_________________________________________________________________\n","max_pooling2d (MaxPooling2D) (None, 32, 32, 64)        0         \n","_________________________________________________________________\n","conv2d_1 (Conv2D)            (None, 32, 32, 32)        18464     \n","_________________________________________________________________\n","activation_1 (Activation)    (None, 32, 32, 32)        0         \n","_________________________________________________________________\n","max_pooling2d_1 (MaxPooling2 (None, 16, 16, 32)        0         \n","_________________________________________________________________\n","flatten (Flatten)            (None, 8192)              0         \n","_________________________________________________________________\n","dense (Dense)                (None, 128)               1048704   \n","_________________________________________________________________\n","activation_2 (Activation)    (None, 128)               0         \n","_________________________________________________________________\n","dense_1 (Dense)              (None, 3)                 387       \n","_________________________________________________________________\n","activation_3 (Activation)    (None, 3)                 0         \n","=================================================================\n","Total params: 1,068,195\n","Trainable params: 1,068,195\n","Non-trainable params: 0\n","_________________________________________________________________\n"],"name":"stdout"}]},{"cell_type":"code","metadata":{"colab":{"base_uri":"https://localhost:8080/"},"id":"0NZZttz6KqjR","executionInfo":{"status":"ok","timestam
…
","\r\n","model.add(layers.Dense(128))\r\n","model.add(layers.Activation('swish'))\r\n","model.add(layers.Dropout(0.3))\r\n","\r\n","#add last layer for 3 classes\r\n","model.add(layers.Dense(3))\r\n","model.add(layers.Activation('softmax'))\r\n","model.summary()"],"execution_count":null,"outputs":[{"output_type":"stream","text":["Model: \"sequential_1\"\n","_________________________________________________________________\n","Layer (type)                 Output Shape              Param #   \n","=================================================================\n","conv2d_2 (Conv2D)            (None, 64, 64, 16)        416       \n","_________________________________________________________________\n","activation_4 (Activation)    (None, 64, 64, 16)        0         \n","_________________________________________________________________\n","conv2d_3 (Conv2D)            (None, 64, 64, 32)        4640      \n","_________________________________________________________________\n","activation_5 (Activation)    (None, 64, 64, 32)        0         \n","_________________________________________________________________\n","conv2d_4 (Conv2D)            (None, 64, 64, 32)        9248      \n","_________________________________________________________________\n","activation_6 (Activation)    (None, 64, 64, 32)        0         \n","_________________________________________________________________\n","max_pooling2d_2 (MaxPooling2 (None, 32, 32, 32)        0         \n","_________________________________________________________________\n","conv2d_5 (Conv2D)            (None, 32, 32, 64)        18496     \n","_________________________________________________________________\n","activation_7 (Activation)    (None, 32, 32, 64)        0         \n","_________________________________________________________________\n","conv2d_6 (Conv2D)            (None, 32, 32, 64)        36928     \n","_________________________________________________________________\n","activation_8 (Activation)    (None, 32, 32, 64)        0         \n","_________________________________________________________________\n","max_pooling2d_3 (MaxPooling2 (None, 16, 16, 64)        0         \n","_________________________________________________________________\n","flatten_1 (Flatten)          (None, 16384)             0         \n","_________________________________________________________________\n","dense_2 (Dense)              (None, 256)               4194560   \n","_________________________________________________________________\n","activation_9 (Activation)    (None, 256)               0         \n","_________________________________________________________________\n","dropout (Dropout)            (None, 256)               0         \n","_________________________________________________________________\n","dense_3 (Dense)              (None, 128)               32896     \n","_________________________________________________________________\n","activation_10 (Activation)   (None, 128)               0         \n","_________________________________________________________________\n","dropout_1 (Dropout)          (None, 128)               0         \n","_________________________________________________________________\n","dense_4 (Dense)              (None, 3)                 387       \n","_________________________________________________________________\n","activation_11 (Activation)   (None, 3)                 0         \n","=================================================================\n","Total params: 4,297,571\n","Trainable params: 4,297,571\n","Non-trainable params: 0\n","_________________________________________________________________\n"],"name":"stdout"}]},{"cell_type":"code","metadata":{"colab":{"base_uri":"https://localhost:8080/"},"id":"LqstKeEcz9Wr","executionInfo":{"status":"ok","timestam
…
","\r\n","model.add(layers.Dense(128))\r\n","model.add(layers.Activation('swish'))\r\n","model.add(layers.Dropout(0.3))\r\n","\r\n","#add last layer for 3 classes\r\n","model.add(layers.Dense(3))\r\n","model.add(layers.Activation('softmax'))\r\n","model.summary()"],"execution_count":null,"outputs":[{"output_type":"stream","text":["Model: \"sequential_3\"\n","_________________________________________________________________\n","Layer (type)                 Output Shape              Param #   \n","=================================================================\n","conv2d_12 (Conv2D)           (None, 64, 64, 16)        160       \n","_________________________________________________________________\n","batch_normalization_5 (Batch (None, 64, 64, 16)        64        \n","_________________________________________________________________\n","activation_20 (Activation)   (None, 64, 64, 16)        0         \n","_________________________________________________________________\n","conv2d_13 (Conv2D)           (None, 64, 64, 32)        4640      \n","_________________________________________________________________\n","batch_normalization_6 (Batch (None, 64, 64, 32)        128       \n","_________________________________________________________________\n","activation_21 (Activation)   (None, 64, 64, 32)        0         \n","_________________________________________________________________\n","conv2d_14 (Conv2D)           (None, 64, 64, 32)        9248      \n","_________________________________________________________________\n","batch_normalization_7 (Batch (None, 64, 64, 32)        128       \n","_________________________________________________________________\n","activation_22 (Activation)   (None, 64, 64, 32)        0         \n","_________________________________________________________________\n","max_pooling2d_6 (MaxPooling2 (None, 32, 32, 32)        0         \n","_________________________________________________________________\n","conv2d_15 (Conv2D)           (None, 32, 32, 64)        18496     \n","_________________________________________________________________\n","batch_normalization_8 (Batch (None, 32, 32, 64)        256       \n","_________________________________________________________________\n","activation_23 (Activation)   (None, 32, 32, 64)        0         \n","_________________________________________________________________\n","conv2d_16 (Conv2D)           (None, 32, 32, 64)        36928     \n","_________________________________________________________________\n","batch_normalization_9 (Batch (None, 32, 32, 64)        256       \n","_________________________________________________________________\n","activation_24 (Activation)   (None, 32, 32, 64)        0         \n","_________________________________________________________________\n","max_pooling2d_7 (MaxPooling2 (None, 16, 16, 64)        0         \n","_________________________________________________________________\n","flatten_3 (Flatten)          (None, 16384)             0         \n","_________________________________________________________________\n","dense_8 (Dense)              (None, 256)               4194560   \n","_________________________________________________________________\n","activation_25 (Activation)   (None, 256)               0         \n","_________________________________________________________________\n","dropout_4 (Dropout)          (None, 256)               0         \n","_________________________________________________________________\n","dense_9 (Dense)              (None, 128)               32896     \n","_________________________________________________________________\n","activation_26 (Activation)   (None, 128)               0         \n","_________________________________________________________________\n","dropout_5 (Dropout)          (None, 128)               0         \n","_________________________________________________________________\n","dense_10 (Dense)             (None, 3)                 387       \n","_________________________________________________________________\n","activation_27 (Activation)   (None, 3)                 0         \n","=================================================================\n","Total params: 4,298,147\n","Trainable params: 4,297,731\n","Non-trainable params: 416\n","_________________________________________________________________\n"],"name":"stdout"}]},{"cell_type":"code","metadata":{"colab":{"base_uri":"https://localhost:8080/"},"id":"6YEgBLY9L5Dx","executionInfo":{"status":"ok","timest
…
olution and Global average pooling\r\n","model.add(layers.Conv2D(3, (1, 1),padding='same'))\r\n","model.add(layers.GlobalMaxPooling2D())\r\n","model.add(layers.BatchNormalization())\r\n","model.add(layers.Activation('softmax'))\r\n","\r\n","\r\n","model.summary()"],"execution_count":null,"outputs":[{"output_type":"stream","text":["Model: \"sequential_3\"\n","_________________________________________________________________\n","Layer (type)                 Output Shape              Param #   \n","=================================================================\n","conv2d_18 (Conv2D)           (None, 64, 64, 8)         208       \n","_________________________________________________________________\n","batch_normalization_18 (Batc (None, 64, 64, 8)         32        \n","_________________________________________________________________\n","activation_18 (Activation)   (None, 64, 64, 8)         0         \n","_________________________________________________________________\n","conv2d_19 (Conv2D)           (None, 64, 64, 16)        1168      \n","_________________________________________________________________\n","batch_normalization_19 (Batc (None, 64, 64, 16)        64        \n","_________________________________________________________________\n","activation_19 (Activation)   (None, 64, 64, 16)        0         \n","_________________________________________________________________\n","conv2d_20 (Conv2D)           (None, 64, 64, 16)        2320      \n","_________________________________________________________________\n","batch_normalization_20 (Batc (None, 64, 64, 16)        64        \n","_________________________________________________________________\n","activation_20 (Activation)   (None, 64, 64, 16)        0         \n","_________________________________________________________________\n","max_pooling2d_6 (MaxPooling2 (None, 32, 32, 16)        0         \n","_________________________________________________________________\n","conv2d_21 (Conv2D)           (None, 32, 32, 32)        4640      \n","_________________________________________________________________\n","batch_normalization_21 (Batc (None, 32, 32, 32)        128       \n","_________________________________________________________________\n","activation_21 (Activation)   (None, 32, 32, 32)        0         \n","_________________________________________________________________\n","conv2d_22 (Conv2D)           (None, 32, 32, 32)        9248      \n","_________________________________________________________________\n","batch_normalization_22 (Batc (None, 32, 32, 32)        128       \n","_________________________________________________________________\n","activation_22 (Activation)   (None, 32, 32, 32)        0         \n","_________________________________________________________________\n","max_pooling2d_7 (MaxPooling2 (None, 16, 16, 32)        0         \n","_________________________________________________________________\n","conv2d_23 (Conv2D)           (None, 16, 16, 3)         99        \n","_________________________________________________________________\n","global_max_pooling2d_3 (Glob (None, 3)                 0         \n","_________________________________________________________________\n","batch_normalization_23 (Batc (None, 3)                 12        \n","_________________________________________________________________\n","activation_23 (Activation)   (None, 3)                 0         \n","=================================================================\n","Total params: 18,111\n","Trainable params: 17,897\n","Non-trainable params: 214\n","_________________________________________________________________\n"],"name":"stdout"}]},{"cell_type":"code","metadata":{"colab":{"base_uri":"https://localhost:8080/"},"id":"QB0wm8jtwPOe","executionInfo":{"status":"ok","timestamp":1
…
","\r\n","model.add(layers.Dense(128))\r\n","model.add(layers.Activation('swish'))\r\n","model.add(layers.Dropout(0.3))\r\n","\r\n","#add last layer for 3 classes\r\n","model.add(layers.Dense(3))\r\n","model.add(layers.Activation('softmax'))\r\n","model.summary()"],"execution_count":null,"outputs":[{"output_type":"stream","text":["Model: \"sequential_4\"\n","_________________________________________________________________\n","Layer (type)                 Output Shape              Param #   \n","=================================================================\n","conv2d_24 (Conv2D)           (None, 60, 60, 8)         208       \n","_________________________________________________________________\n","batch_normalization_24 (Batc (None, 60, 60, 8)         32        \n","_________________________________________________________________\n","activation_24 (Activation)   (None, 60, 60, 8)         0         \n","_________________________________________________________________\n","conv2d_25 (Conv2D)           (None, 58, 58, 16)        1168      \n","_________________________________________________________________\n","batch_normalization_25 (Batc (None, 58, 58, 16)        64        \n","_________________________________________________________________\n","activation_25 (Activation)   (None, 58, 58, 16)        0         \n","_________________________________________________________________\n","conv2d_26 (Conv2D)           (None, 56, 56, 16)        2320      \n","_________________________________________________________________\n","batch_normalization_26 (Batc (None, 56, 56, 16)        64        \n","_________________________________________________________________\n","activation_26 (Activation)   (None, 56, 56, 16)        0         \n","_________________________________________________________________\n","conv2d_27 (Conv2D)           (None, 54, 54, 32)        4640      \n","_________________________________________________________________\n","batch_normalization_27 (Batc (None, 54, 54, 32)        128       \n","_________________________________________________________________\n","activation_27 (Activation)   (None, 54, 54, 32)        0         \n","_________________________________________________________________\n","conv2d_28 (Conv2D)           (None, 52, 52, 32)        9248      \n","_________________________________________________________________\n","batch_normalization_28 (Batc (None, 52, 52, 32)        128       \n","_________________________________________________________________\n","activation_28 (Activation)   (None, 52, 52, 32)        0         \n","_________________________________________________________________\n","flatten (Flatten)            (None, 86528)             0         \n","_________________________________________________________________\n","dense (Dense)                (None, 256)               22151424  \n","_________________________________________________________________\n","activation_29 (Activation)   (None, 256)               0         \n","_________________________________________________________________\n","dropout (Dropout)            (None, 256)               0         \n","_________________________________________________________________\n","dense_1 (Dense)              (None, 128)               32896     \n","_________________________________________________________________\n","activation_30 (Activation)   (None, 128)               0         \n","_________________________________________________________________\n","dropout_1 (Dropout)          (None, 128)               0         \n","_________________________________________________________________\n","dense_2 (Dense)              (None, 3)                 387       \n","_________________________________________________________________\n","activation_31 (Activation)   (None, 3)                 0         \n","=================================================================\n","Total params: 22,202,707\n","Trainable params: 22,202,499\n","Non-trainable params: 208\n","_________________________________________________________________\n"],"name":"stdout"}]},{"cell_type":"code","metadata":{"colab":{"base_uri":"https://localhost:8080/"},"id":"BXYmTKhIT0PO","executionInfo":{"status":"ok","time
…
