…
\r\n","\r\n","model.add(layers.Dense(128))\r\n","model.add(layers.Activation('swish'))\r\n","model.add(layers.Dropout(0.3))\r\n","\r\n","#add last layer for 3 classes\r\n","model.add(layers.Dense(3))\r\n","model.add(layers.Activation('softmax'))\r\n","model.summary()"],"execution_count":13,"outputs":[{"output_type":"stream","text":["Model: \"sequential\"\n","_________________________________________________________________\n","Layer (type)                 Output Shape              Param #   \n","=================================================================\n","conv2d (Conv2D)              (None, 64, 64, 16)        160       \n","_________________________________________________________________\n","batch_normalization (BatchNo (None, 64, 64, 16)        64        \n","_________________________________________________________________\n","activation (Activation)      (None, 64, 64, 16)        0         \n","_________________________________________________________________\n","conv2d_1 (Conv2D)            (None, 64, 64, 32)        4640      \n","_________________________________________________________________\n","batch_normalization_1 (Batch (None, 64, 64, 32)        128       \n","_________________________________________________________________\n","activation_1 (Activation)    (None, 64, 64, 32)        0         \n","_________________________________________________________________\n","conv2d_2 (Conv2D)            (None, 64, 64, 32)        9248      \n","_________________________________________________________________\n","batch_normalization_2 (Batch (None, 64, 64, 32)        128       \n","_________________________________________________________________\n","activation_2 (Activation)    (None, 64, 64, 32)        0         \n","_________________________________________________________________\n","max_pooling2d (MaxPooling2D) (None, 32, 32, 32)        0         \n","_________________________________________________________________\n","conv2d_3 (Conv2D)            (None, 32, 32, 64)        18496     \n","_________________________________________________________________\n","batch_normalization_3 (Batch (None, 32, 32, 64)        256       \n","_________________________________________________________________\n","activation_3 (Activation)    (None, 32, 32, 64)        0         \n","_________________________________________________________________\n","conv2d_4 (Conv2D)            (None, 32, 32, 64)        36928     \n","_________________________________________________________________\n","batch_normalization_4 (Batch (None, 32, 32, 64)        256       \n","_________________________________________________________________\n","activation_4 (Activation)    (None, 32, 32, 64)        0         \n","_________________________________________________________________\n","max_pooling2d_1 (MaxPooling2 (None, 16, 16, 64)        0         \n","_________________________________________________________________\n","flatten (Flatten)            (None, 16384)             0         \n","_________________________________________________________________\n","dense (Dense)                (None, 256)               4194560   \n","_________________________________________________________________\n","activation_5 (Activation)    (None, 256)               0         \n","_________________________________________________________________\n","dropout (Dropout)            (None, 256)               0         \n","_________________________________________________________________\n","dense_1 (Dense)              (None, 128)               32896     \n","_________________________________________________________________\n","activation_6 (Activation)    (None, 128)               0         \n","_________________________________________________________________\n","dropout_1 (Dropout)          (None, 128)               0         \n","_________________________________________________________________\n","dense_2 (Dense)              (None, 3)                 387       \n","_________________________________________________________________\n","activation_7 (Activation)    (None, 3)                 0         \n","=================================================================\n","Total params: 4,298,147\n","Trainable params: 4,297,731\n","Non-trainable params: 416\n","_________________________________________________________________\n"],"name":"stdout"}]},{"cell_type":"code","metadata":{"colab":{"base_uri":"https://localhost:8080/"},"id":"d88sltOYpUJn","executionInfo":{"status":"ok","timest
…
